…
<div class="sourceCode cell-code" id="cb61" style="background: #f1f3f5;"><pre class="sourceCode python code-with-copy"><code class="sourceCode python"><span id="cb61-1">summary(ae, (batch_size, <span class="dv" style="color: #AD0000;">3</span>, <span class="dv" style="color: #AD0000;">256</span>, <span class="dv" style="color: #AD0000;">256</span>))</span></code></pre></div>
<div class="cell-output cell-output-display" data-execution_count="59">
<pre><code>==========================================================================================
Layer (type:depth-idx)                   Output Shape              Param #
==========================================================================================
Autoencoder                              [32, 3, 256, 256]         --
├─Encoder: 1-1                           [32, 384]                 --
│    └─Sequential: 2-1                   [32, 384]                 --
│    │    └─Conv2d: 3-1                  [32, 32, 128, 128]        896
│    │    └─BatchNorm2d: 3-2             [32, 32, 128, 128]        64
│    │    └─LeakyReLU: 3-3               [32, 32, 128, 128]        --
│    │    └─Dropout2d: 3-4               [32, 32, 128, 128]        --
│    │    └─Conv2d: 3-5                  [32, 32, 128, 128]        9,248
│    │    └─BatchNorm2d: 3-6             [32, 32, 128, 128]        64
│    │    └─LeakyReLU: 3-7               [32, 32, 128, 128]        --
│    │    └─Dropout2d: 3-8               [32, 32, 128, 128]        --
│    │    └─Conv2d: 3-9                  [32, 32, 128, 128]        9,248
│    │    └─BatchNorm2d: 3-10            [32, 32, 128, 128]        64
│    │    └─LeakyReLU: 3-11              [32, 32, 128, 128]        --
│    │    └─Dropout2d: 3-12              [32, 32, 128, 128]        --
│    │    └─Conv2d: 3-13                 [32, 64, 64, 64]          18,496
│    │    └─BatchNorm2d: 3-14            [32, 64, 64, 64]          128
│    │    └─LeakyReLU: 3-15              [32, 64, 64, 64]          --
│    │    └─Dropout2d: 3-16              [32, 64, 64, 64]          --
│    │    └─Conv2d: 3-17                 [32, 64, 64, 64]          36,928
│    │    └─BatchNorm2d: 3-18            [32, 64, 64, 64]          128
│    │    └─LeakyReLU: 3-19              [32, 64, 64, 64]          --
│    │    └─Dropout2d: 3-20              [32, 64, 64, 64]          --
│    │    └─Conv2d: 3-21                 [32, 64, 32, 32]          36,928
│    │    └─BatchNorm2d: 3-22            [32, 64, 32, 32]          128
│    │    └─LeakyReLU: 3-23              [32, 64, 32, 32]          --
│    │    └─Dropout2d: 3-24              [32, 64, 32, 32]          --
│    │    └─Flatten: 3-25                [32, 65536]               --
│    │    └─Linear: 3-26                 [32, 384]                 25,166,208
├─Decoder: 1-2                           [32, 3, 256, 256]         --
│    └─Sequential: 2-2                   [32, 65536]               --
│    │    └─Linear: 3-27                 [32, 65536]               25,231,360
│    │    └─LeakyReLU: 3-28              [32, 65536]               --
│    └─Sequential: 2-3                   [32, 3, 256, 256]         --
│    │    └─ConvTranspose2d: 3-29        [32, 64, 64, 64]          36,928
│    │    └─BatchNorm2d: 3-30            [32, 64, 64, 64]          128
│    │    └─LeakyReLU: 3-31              [32, 64, 64, 64]          --
│    │    └─Dropout2d: 3-32              [32, 64, 64, 64]          --
│    │    └─ConvTranspose2d: 3-33        [32, 64, 64, 64]          36,928
│    │    └─BatchNorm2d: 3-34            [32, 64, 64, 64]          128
│    │    └─LeakyReLU: 3-35              [32, 64, 64, 64]          --
│    │    └─Dropout2d: 3-36              [32, 64, 64, 64]          --
│    │    └─ConvTranspose2d: 3-37        [32, 32, 128, 128]        18,464
│    │    └─BatchNorm2d: 3-38            [32, 32, 128, 128]        64
│    │    └─LeakyReLU: 3-39              [32, 32, 128, 128]        --
│    │    └─Dropout2d: 3-40              [32, 32, 128, 128]        --
│    │    └─ConvTranspose2d: 3-41        [32, 32, 128, 128]        9,248
│    │    └─BatchNorm2d: 3-42            [32, 32, 128, 128]        64
│    │    └─LeakyReLU: 3-43              [32, 32, 128, 128]        --
│    │    └─Dropout2d: 3-44              [32, 32, 128, 128]        --
│    │    └─ConvTranspose2d: 3-45        [32, 32, 128, 128]        9,248
│    │    └─BatchNorm2d: 3-46            [32, 32, 128, 128]        64
│    │    └─LeakyReLU: 3-47              [32, 32, 128, 128]        --
│    │    └─Dropout2d: 3-48              [32, 32, 128, 128]        --
│    │    └─ConvTranspose2d: 3-49        [32, 3, 256, 256]         867
│    │    └─Trim: 3-50                   [32, 3, 256, 256]         --
│    │    └─Sigmoid: 3-51                [32, 3, 256, 256]         --
==========================================================================================
Total params: 50,622,019
Trainable params: 50,622,019
Non-trainable params: 0
Total mult-adds (G): 51.13
==========================================================================================
Input size (MB): 25.17
Forward/backward pass size (MB): 2248.25
Params size (MB): 202.49
Estimated Total Size (MB): 2475.90
…
<div class="sourceCode cell-code" id="cb21" style="background: #f1f3f5;"><pre class="sourceCode python code-with-copy"><code class="sourceCode python"><span id="cb21-1">summary(model_0, input_size<span class="op" style="color: #5E5E5E;">=</span>[<span class="dv" style="color: #AD0000;">1</span>, <span class="dv" style="color: #AD0000;">3</span>, <span class="dv" style="color: #AD0000;">64</span>, <span class="dv" style="color: #AD0000;">64</span>])</span></code></pre></div>
<div class="cell-output cell-output-display" data-execution_count="14">
<pre><code>==========================================================================================
Layer (type:depth-idx)                   Output Shape              Param #
==========================================================================================
TinyVGG                                  [1, 52]                   --
├─Sequential: 1-1                        [1, 10, 32, 32]           --
│    └─Conv2d: 2-1                       [1, 10, 64, 64]           280
│    └─ReLU: 2-2                         [1, 10, 64, 64]           --
│    └─Conv2d: 2-3                       [1, 10, 64, 64]           910
│    └─ReLU: 2-4                         [1, 10, 64, 64]           --
│    └─MaxPool2d: 2-5                    [1, 10, 32, 32]           --
├─Sequential: 1-2                        [1, 10, 16, 16]           --
│    └─Conv2d: 2-6                       [1, 10, 32, 32]           910
│    └─ReLU: 2-7                         [1, 10, 32, 32]           --
│    └─Conv2d: 2-8                       [1, 10, 32, 32]           910
│    └─ReLU: 2-9                         [1, 10, 32, 32]           --
│    └─MaxPool2d: 2-10                   [1, 10, 16, 16]           --
├─Sequential: 1-3                        [1, 52]                   --
│    └─Flatten: 2-11                     [1, 2560]                 --
│    └─Linear: 2-12                      [1, 52]                   133,172
==========================================================================================
Total params: 136,182
Trainable params: 136,182
Non-trainable params: 0
Total mult-adds (M): 6.87
==========================================================================================
Input size (MB): 0.05
Forward/backward pass size (MB): 0.82
Params size (MB): 0.54
Estimated Total Size (MB): 1.41
==========================================================================================</code></pre>
…
<div class="cell-output cell-output-display" data-execution_count="18">
<pre><code>===========================================================================================================================================================
Layer (type:depth-idx)                                  Input Shape               Output Shape              Param #                   Trainable
===========================================================================================================================================================
EfficientNet                                            [32, 3, 224, 224]         [32, 1000]                --                        True
├─Sequential: 1-1                                       [32, 3, 224, 224]         [32, 1280, 7, 7]          --                        True
│    └─Conv2dNormActivation: 2-1                        [32, 3, 224, 224]         [32, 32, 112, 112]        --                        True
│    │    └─Conv2d: 3-1                                 [32, 3, 224, 224]         [32, 32, 112, 112]        864                       True
│    │    └─BatchNorm2d: 3-2                            [32, 32, 112, 112]        [32, 32, 112, 112]        64                        True
│    │    └─SiLU: 3-3                                   [32, 32, 112, 112]        [32, 32, 112, 112]        --                        --
│    └─Sequential: 2-2                                  [32, 32, 112, 112]        [32, 16, 112, 112]        --                        True
│    │    └─MBConv: 3-4                                 [32, 32, 112, 112]        [32, 16, 112, 112]        1,448                     True
│    │    └─MBConv: 3-5                                 [32, 16, 112, 112]        [32, 16, 112, 112]        612                       True
│    └─Sequential: 2-3                                  [32, 16, 112, 112]        [32, 24, 56, 56]          --                        True
│    │    └─MBConv: 3-6                                 [32, 16, 112, 112]        [32, 24, 56, 56]          6,004                     True
│    │    └─MBConv: 3-7                                 [32, 24, 56, 56]          [32, 24, 56, 56]          10,710                    True
│    │    └─MBConv: 3-8                                 [32, 24, 56, 56]          [32, 24, 56, 56]          10,710                    True
│    └─Sequential: 2-4                                  [32, 24, 56, 56]          [32, 40, 28, 28]          --                        True
│    │    └─MBConv: 3-9                                 [32, 24, 56, 56]          [32, 40, 28, 28]          15,350                    True
│    │    └─MBConv: 3-10                                [32, 40, 28, 28]          [32, 40, 28, 28]          31,290                    True
│    │    └─MBConv: 3-11                                [32, 40, 28, 28]          [32, 40, 28, 28]          31,290                    True
│    └─Sequential: 2-5                                  [32, 40, 28, 28]          [32, 80, 14, 14]          --                        True
│    │    └─MBConv: 3-12                                [32, 40, 28, 28]          [32, 80, 14, 14]          37,130                    True
│    │    └─MBConv: 3-13                                [32, 80, 14, 14]          [32, 80, 14, 14]          102,900                   True
│    │    └─MBConv: 3-14                                [32, 80, 14, 14]          [32, 80, 14, 14]          102,900                   True
│    │    └─MBConv: 3-15                                [32, 80, 14, 14]          [32, 80, 14, 14]          102,900                   True
│    └─Sequential: 2-6                                  [32, 80, 14, 14]          [32, 112, 14, 14]         --                        True
│    │    └─MBConv: 3-16                                [32, 80, 14, 14]          [32, 112, 14, 14]         126,004                   True
│    │    └─MBConv: 3-17                                [32, 112, 14, 14]         [32, 112, 14, 14]         208,572                   True
│    │    └─MBConv: 3-18                                [32, 112, 14, 14]         [32, 112, 14, 14]         208,572                   True
│    │    └─MBConv: 3-19                                [32, 112, 14, 14]         [32, 112, 14, 14]         208,572                   True
│    └─Sequential: 2-7                                  [32, 112, 14, 14]         [32, 192, 7, 7]           --                        True
│    │    └─MBConv: 3-20                                [32, 112, 14, 14]         [32, 192, 7, 7]           262,492                   True
│    │    └─MBConv: 3-21                                [32, 192, 7, 7]           [32, 192, 7, 7]           587,952                   True
│    │    └─MBConv: 3-22                                [32, 192, 7, 7]           [32, 192, 7, 7]           587,952                   True
│    │    └─MBConv: 3-23                                [32, 192, 7, 7]           [32, 192, 7, 7]           587,952                   True
│    │    └─MBConv: 3-24                                [32, 192, 7, 7]           [32, 192, 7, 7]           587,952                   True
│    └─Sequential: 2-8                                  [32, 192, 7, 7]           [32, 320, 7, 7]           --                        True
│    │    └─MBConv: 3-25                                [32, 192, 7, 7]           [32, 320, 7, 7]           717,232                   True
│    │    └─MBConv: 3-26                                [32, 320, 7, 7]           [32, 320, 7, 7]           1,563,600                 True
│    └─Conv2dNormActivation: 2-9                        [32, 320, 7, 7]           [32, 1280, 7, 7]          --                        True
│    │    └─Conv2d: 3-27                                [32, 320, 7, 7]           [32, 1280, 7, 7]          409,600                   True
│    │    └─BatchNorm2d: 3-28                           [32, 1280, 7, 7]          [32, 1280, 7, 7]          2,560                     True
│    │    └─SiLU: 3-29                                  [32, 1280, 7, 7]          [32, 1280, 7, 7]          --                        --
├─AdaptiveAvgPool2d: 1-2                                [32, 1280, 7, 7]          [32, 1280, 1, 1]          --                        --
├─Sequential: 1-3                                       [32, 1280]                [32, 1000]                --                        True
│    └─Dropout: 2-10                                    [32, 1280]                [32, 1280]                --                        --
│    └─Linear: 2-11                                     [32, 1280]                [32, 1000]                1,281,000                 True
===========================================================================================================================================================
Total params: 7,794,184
Trainable params: 7,794,184
Non-trainable params: 0
Total mult-adds (G): 18.23
===========================================================================================================================================================
…
