…
(3): ReLU()\n    (4): MaxPool2d(kernel_size=2, stride=2, padding=0, dilation=1, ceil_mode=False)\n  )\n  (classifier): Sequential(\n    (0): Flatten(start_dim=1, end_dim=-1)\n    (1): Linear(in_features=2560, out_features=52, bias=True)\n  )\n)\n\n\n\nsummary(model_0, input_size=[1, 3, 64, 64])\n\n==========================================================================================\nLayer (type:depth-idx)                   Output Shape              Param #\n==========================================================================================\nTinyVGG                                  [1, 52]                   --\n├─Sequential: 1-1                        [1, 10, 32, 32]           --\n│    └─Conv2d: 2-1                       [1, 10, 64, 64]           280\n│    └─ReLU: 2-2                         [1, 10, 64, 64]           --\n│    └─Conv2d: 2-3                       [1, 10, 64, 64]           910\n│    └─ReLU: 2-4                         [1, 10, 64, 64]           --\n│    └─MaxPool2d: 2-5                    [1, 10, 32, 32]           --\n├─Sequential: 1-2                        [1, 10, 16, 16]           --\n│    └─Conv2d: 2-6                       [1, 10, 32, 32]           910\n│    └─ReLU: 2-7                         [1, 10, 32, 32]           --\n│    └─Conv2d: 2-8                       [1, 10, 32, 32]           910\n│    └─ReLU: 2-9                         [1, 10, 32, 32]           --\n│    └─MaxPool2d: 2-10                   [1, 10, 16, 16]           --\n├─Sequential: 1-3                        [1, 52]                   --\n│    └─Flatten: 2-11                     [1, 2560]                 --\n│    └─Linear: 2-12                      [1, 52]                   133,172\n==========================================================================================\nTotal params: 136,182\nTrainable params: 136,182\nNon-trainable params: 0\nTotal mult-adds (M): 6.87\n==========================================================================================\nInput size (MB): 0.05\nForward/backward pass size (MB): 0.82\nParams size (MB): 0.54\nEstimated Total Size (MB):
…
ize\", \"output_size\", \"num_params\", \"trainable\"])\n\n===========================================================================================================================================================\nLayer (type:depth-idx)                                  Input Shape               Output Shape              Param #                   Trainable\n===========================================================================================================================================================\nEfficientNet                                            [32, 3, 224, 224]         [32, 1000]                --                        True\n├─Sequential: 1-1                                       [32, 3, 224, 224]         [32, 1280, 7, 7]          --                        True\n│    └─Conv2dNormActivation: 2-1                        [32, 3, 224, 224]         [32, 32, 112, 112]        --                        True\n│    │    └─Conv2d: 3-1                                 [32, 3, 224, 224]         [32, 32, 112, 112]        864                       True\n│    │    └─BatchNorm2d: 3-2                            [32, 32, 112, 112]        [32, 32, 112, 112]        64                        True\n│    │    └─SiLU: 3-3                                   [32, 32, 112, 112]        [32, 32, 112, 112]        --                        --\n│    └─Sequential: 2-2                                  [32, 32, 112, 112]        [32, 16, 112, 112]        --                        True\n│    │    └─MBConv: 3-4                                 [32, 32, 112, 112]        [32, 16, 112, 112]        1,448                     True\n│    │    └─MBConv: 3-5                                 [32, 16, 112, 112]        [32, 16, 112, 112]        612                       True\n│    └─Sequential: 2-3                                  [32, 16, 112, 112]        [32, 24, 56, 56]          --                        True\n│    │    └─MBConv: 3-6                                 [32, 16, 112, 112]        [32, 24, 56, 56]          6,004                     True\n│    │    └─MBConv: 3-7                                 [32, 24, 56, 56]          [32, 24, 56, 56]          10,710                    True\n│    │    └─MBConv: 3-8                                 [32, 24, 56, 56]          [32, 24, 56, 56]          10,710                    True\n│    └─Sequential: 2-4                                  [32, 24, 56, 56]          [32, 40, 28, 28]          --                        True\n│    │    └─MBConv: 3-9                                 [32, 24, 56, 56]          [32, 40, 28, 28]          15,350                    True\n│    │    └─MBConv: 3-10                                [32, 40, 28, 28]          [32, 40, 28, 28]          31,290                    True\n│    │    └─MBConv: 3-11                                [32, 40, 28, 28]          [32, 40, 28, 28]          31,290                    True\n│    └─Sequential: 2-5                                  [32, 40, 28, 28]          [32, 80, 14, 14]          --                        True\n│    │    └─MBConv: 3-12                                [32, 40, 28, 28]          [32, 80, 14, 14]          37,130                    True\n│    │    └─MBConv: 3-13                                [32, 80, 14, 14]          [32, 80, 14, 14]          102,900                   True\n│    │    └─MBConv: 3-14                                [32, 80, 14, 14]          [32, 80, 14, 14]          102,900                   True\n│    │    └─MBConv: 3-15                                [32, 80, 14, 14]          [32, 80, 14, 14]          102,900                   True\n│    └─Sequential: 2-6                                  [32, 80, 14, 14]          [32, 112, 14, 14]         --                        True\n│    │    └─MBConv: 3-16                                [32, 80, 14, 14]          [32, 112, 14, 14]         126,004                   True\n│    │    └─MBConv: 3-17                                [32, 112, 14, 14]         [32, 112, 14, 14]         208,572                   True\n│    │    └─MBConv: 3-18                                [32, 112, 14, 14]         [32, 112, 14, 14]         208,572                   True\n│    │    └─MBConv: 3-19                                [32, 112, 14, 14]         [32, 112, 14, 14]         208,572                   True\n│    └─Sequential: 2-7                                  [32, 112, 14, 14]         [32, 192, 7, 7]           --                        True\n│    │    └─MBConv: 3-20                                [32, 112, 14, 14]         [32, 192, 7, 7]           262,492                   True\n│    │    └─MBConv: 3-21                                [32, 192, 7, 7]           [32, 192, 7, 7]           587,952                   True\n│    │    └─MBConv: 3-22                                [32, 192, 7, 7]           [32, 192, 7, 7]           587,952                   True\n│    │    └─MBConv: 3-23                                [32, 192, 7, 7]           [32, 192, 7, 7]           587,952                   True\n│    │    └─MBConv: 3-24                                [32, 192, 7, 7]           [32, 192, 7, 7]           587,952                   True\n│    └─Sequential: 2-8                                  [32, 192, 7, 7]           [32, 320, 7, 7]           --                        True\n│    │    └─MBConv: 3-25                                [32, 192, 7, 7]           [32, 320, 7, 7]           717,232                   True\n│    │    └─MBConv: 3-26                                [32, 320, 7, 7]           [32, 320, 7, 7]           1,563,600                 True\n│    └─Conv2dNormActivation: 2-9                        [32, 320, 7, 7]           [32, 1280, 7, 7]          --                        True\n│    │    └─Conv2d: 3-27                                [32, 320, 7, 7]           [32, 1280, 7, 7]          409,600                   True\n│    │    └─BatchNorm2d: 3-28                           [32, 1280, 7, 7]          [32, 1280, 7, 7]          2,560                     True\n│    │    └─SiLU: 3-29                                  [32, 1280, 7, 7]          [32, 1280, 7, 7]          --                        --\n├─AdaptiveAvgPool2d: 1-2                                [32, 1280, 7, 7]          [32, 1280, 1, 1]          --                        --\n├─Sequential: 1-3                                       [32, 1280]                [32, 1000]                --                        True\n│    └─Dropout: 2-10                                    [32, 1280]                [32, 1280]                --                        --\n│    └─Linear: 2-11                                     [32, 1280]                [32, 1000]                1,281,000                 True\n===========================================================================================================================================================\nTotal params: 7,794,184\nTrainable params: 7,794,184\nNon-trainable params: 0\nTotal mult-adds (G): 18.23\n=================================================================================================================
…
